…
I20260407 07:06:39 1914010 dinov3 ac_compile_parallelize.py:133] using selective checkpointing on backbone with selective policy
I20260407 07:06:39 1914010 dinov3 ac_compile_parallelize.py:63] HSDP mesh: 2 replica-groups × 2 shards/group  (world_size=4)
I20260407 07:06:40 1914010 dinov3 train.py:630] Model after distributed:
SSLMetaArchLoRA(
  (dino_loss): DINOLoss()
  (koleo_loss): KoLeoLoss(
    (pdist): PairwiseDistance()
  )
  (ibot_patch_loss): iBOTPatchLoss(
    (sinkhorn_knopp_teacher): SinkhornKnoppTeacher()
  )
  (student): ModuleDict(
    (backbone): FSDPDinoVisionTransformer(
      (patch_embed): PatchEmbedPerChannel(
        (proj): Conv3d(1, 4096, kernel_size=(1, 16, 16), stride=(1, 16, 16))
      )
      (rope_embed): RopePositionEmbedding()
      (blocks): ModuleList(
        (0-39): 40 x FSDPCheckpointWrapper(
          (_checkpoint_wrapped_module): SelfAttentionBlock(
            (norm1): LayerNorm((4096,), eps=1e-05, elementwise_affine=True)
            (attn): SelfAttention(
              (qkv): LinearKMaskedBias(in_features=4096, out_features=12288, bias=False)
              (attn_drop): Dropout(p=0.0, inplace=False)
              (proj): Linear(in_features=4096, out_features=4096, bias=True)
              (proj_drop): Dropout(p=0.0, inplace=False)
            )
            (ls1): LayerScale()
            (norm2): LayerNorm((4096,), eps=1e-05, elementwise_affine=True)
            (mlp): SwiGLUFFN(
              (w1): Linear(in_features=4096, out_features=8192, bias=True)
              (w2): Linear(in_features=4096, out_features=8192, bias=True)
              (w3): Linear(in_features=8192, out_features=4096, bias=True)
            )
            (ls2): LayerScale()
          )
        )
      )
      (norm): LayerNorm((4096,), eps=1e-05, elementwise_affine=True)
      (local_cls_norm): LayerNorm((4096,), eps=1e-05, elementwise_affine=True)
      (head): Identity()
    )
    (dino_head): FSDPDINOHead(
      (mlp): Sequential(
        (0): Linear(in_features=4096, out_features=8192, bias=True)
        (1): GELU(approximate='none')
        (2): Linear(in_features=8192, out_features=8192, bias=True)
        (3): GELU(approximate='none')
        (4): Linear(in_features=8192, out_features=512, bias=True)
      )
      (last_layer): Linear(in_features=512, out_features=262144, bias=False)
    )
    (ibot_head): FSDPDINOHead(
      (mlp): Sequential(
        (0): Linear(in_features=4096, out_features=4096, bias=True)
        (1): GELU(approximate='none')
        (2): Linear(in_features=4096, out_features=4096, bias=True)
        (3): GELU(approximate='none')
        (4): Linear(in_features=4096, out_features=384, bias=True)
      )
      (last_layer): Linear(in_features=384, out_features=98304, bias=False)
    )
  )
  (teacher): ModuleDict(
    (backbone): FSDPDinoVisionTransformer(
      (patch_embed): PatchEmbedPerChannel(
        (proj): Conv3d(1, 4096, kernel_size=(1, 16, 16), stride=(1, 16, 16))
      )
      (rope_embed): RopePositionEmbedding()
      (blocks): ModuleList(
        (0-39): 40 x FSDPSelfAttentionBlock(
          (norm1): LayerNorm((4096,), eps=1e-05, elementwise_affine=True)
          (attn): SelfAttention(
            (qkv): LinearKMaskedBias(in_features=4096, out_features=12288, bias=False)
            (attn_drop): Dropout(p=0.0, inplace=False)
            (proj): Linear(in_features=4096, out_features=4096, bias=True)
            (proj_drop): Dropout(p=0.0, inplace=False)
          )
          (ls1): LayerScale()
          (norm2): LayerNorm((4096,), eps=1e-05, elementwise_affine=True)
          (mlp): SwiGLUFFN(
            (w1): Linear(in_features=4096, out_features=8192, bias=True)
            (w2): Linear(in_features=4096, out_features=8192, bias=True)
            (w3): Linear(in_features=8192, out_features=4096, bias=True)
          )
          (ls2): LayerScale()
        )
      )
      (norm): LayerNorm((4096,), eps=1e-05, elementwise_affine=True)
      (local_cls_norm): LayerNorm((4096,), eps=1e-05, elementwise_affine=True)
      (head): Identity()
    )
    (dino_head): FSDPDINOHead(
      (mlp): Sequential(
        (0): Linear(in_features=4096, out_features=8192, bias=True)
        (1): GELU(approximate='none')
        (2): Linear(in_features=8192, out_features=8192, bias=True)
        (3): GELU(approximate='none')
        (4): Linear(in_features=8192, out_features=512, bias=True)
      )
      (last_layer): Linear(in_features=512, out_features=262144, bias=False)
    )
    (ibot_head): FSDPDINOHead(
      (mlp): Sequential(
        (0): Linear(in_features=4096, out_features=4096, bias=True)
        (1): GELU(approximate='none')
        (2): Linear(in_features=4096, out_features=4096, bias=True)
        (3): GELU(approximate='none')
        (4): Linear(in_features=4096, out_features=384, bias=True)
      )
      (last_layer): Linear(in_features=384, out_features=98304, bias=False)
    )
  )
  (model_ema): ModuleDict(
    (backbone): FSDPDinoVisionTransformer(
      (patch_embed): PatchEmbedPerChannel(
        (proj): Conv3d(1, 4096, kernel_size=(1, 16, 16), stride=(1, 16, 16))
      )
      (rope_embed): RopePositionEmbedding()
      (blocks): ModuleList(
        (0-39): 40 x FSDPSelfAttentionBlock(
          (norm1): LayerNorm((4096,), eps=1e-05, elementwise_affine=True)
          (attn): SelfAttention(
            (qkv): LinearKMaskedBias(in_features=4096, out_features=12288, bias=False)
            (attn_drop): Dropout(p=0.0, inplace=False)
            (proj): Linear(in_features=4096, out_features=4096, bias=True)
            (proj_drop): Dropout(p=0.0, inplace=False)
          )
          (ls1): LayerScale()
          (norm2): LayerNorm((4096,), eps=1e-05, elementwise_affine=True)
          (mlp): SwiGLUFFN(
            (w1): Linear(in_features=4096, out_features=8192, bias=True)
            (w2): Linear(in_features=4096, out_features=8192, bias=True)
            (w3): Linear(in_features=8192, out_features=4096, bias=True)
          )
          (ls2): LayerScale()
        )
      )
      (norm): LayerNorm((4096,), eps=1e-05, elementwise_affine=True)
      (local_cls_norm): LayerNorm((4096,), eps=1e-05, elementwise_affine=True)
      (head): Identity()
    )
    (dino_head): FSDPDINOHead(
      (mlp): Sequential(
        (0): Linear(in_features=4096, out_features=8192, bias=True)
        (1): GELU(approximate='none')
        (2): Linear(in_features=8192, out_features=8192, bias=True)
        (3): GELU(approximate='none')
        (4): Linear(in_features=8192, out_features=512, bias=True)
      )
      (last_layer): Linear(in_features=512, out_features=262144, bias=False)
    )
    (ibot_head): FSDPDINOHead(
      (mlp): Sequential(
        (0): Linear(in_features=4096, out_features=4096, bias=True)
        (1): GELU(approximate='none')
        (2): Linear(in_features=4096, out_features=4096, bias=True)
        (3): GELU(approximate='none')
        (4): Linear(in_features=4096, out_features=384, bias=True)
      )
      (last_layer): Linear(in_features=384, out_features=98304, bias=False)
    )
  )
)
I20260407 07:06:40 1914010 dinov3 ssl_meta_arch_lora.py:131] Getting parameter groups for backbone
I20260407 07:06:40 1914010 dinov3 param_groups.py:168] channel_embed: lr_multiplier: 1.0, wd_multiplier: 1.0
I20260407 07:06:40 1914010 dinov3 param_groups.py:168] cls_token: lr_multiplier: 0.4367863958719317, wd_multiplier: 1.0
I20260407 07:06:40 1914010 dinov3 param_groups.py:168] storage_tokens: lr_multiplier: 0.4367863958719317, wd_multiplier: 1.0
…
I20260407 13:53:15 2534090 dinov3 ac_compile_parallelize.py:133] using selective checkpointing on backbone with selective policy
I20260407 13:53:16 2534090 dinov3 ac_compile_parallelize.py:73] FSDP mesh: 1-D, 4 shards
I20260407 13:53:17 2534090 dinov3 train.py:630] Model after distributed:
SSLMetaArchLoRA(
  (dino_loss): DINOLoss()
  (koleo_loss): KoLeoLoss(
    (pdist): PairwiseDistance()
  )
  (ibot_patch_loss): iBOTPatchLoss(
    (sinkhorn_knopp_teacher): SinkhornKnoppTeacher()
  )
  (student): ModuleDict(
    (backbone): FSDPDinoVisionTransformer(
      (patch_embed): PatchEmbed(
        (proj): Conv2d(3, 4096, kernel_size=(16, 16), stride=(16, 16))
        (norm): Identity()
      )
      (rope_embed): RopePositionEmbedding()
      (blocks): ModuleList(
        (0-39): 40 x FSDPCheckpointWrapper(
          (_checkpoint_wrapped_module): SelfAttentionBlock(
            (norm1): LayerNorm((4096,), eps=1e-05, elementwise_affine=True)
            (attn): SelfAttention(
              (qkv): LinearKMaskedBias(in_features=4096, out_features=12288, bias=False)
              (attn_drop): Dropout(p=0.0, inplace=False)
              (proj): Linear(in_features=4096, out_features=4096, bias=True)
              (proj_drop): Dropout(p=0.0, inplace=False)
            )
            (ls1): LayerScale()
            (norm2): LayerNorm((4096,), eps=1e-05, elementwise_affine=True)
            (mlp): SwiGLUFFN(
              (w1): Linear(in_features=4096, out_features=8192, bias=True)
              (w2): Linear(in_features=4096, out_features=8192, bias=True)
              (w3): Linear(in_features=8192, out_features=4096, bias=True)
            )
            (ls2): LayerScale()
          )
        )
      )
      (norm): LayerNorm((4096,), eps=1e-05, elementwise_affine=True)
      (local_cls_norm): LayerNorm((4096,), eps=1e-05, elementwise_affine=True)
      (head): Identity()
    )
    (dino_head): FSDPDINOHead(
      (mlp): Sequential(
        (0): Linear(in_features=4096, out_features=8192, bias=True)
        (1): GELU(approximate='none')
        (2): Linear(in_features=8192, out_features=8192, bias=True)
        (3): GELU(approximate='none')
        (4): Linear(in_features=8192, out_features=512, bias=True)
      )
      (last_layer): Linear(in_features=512, out_features=262144, bias=False)
    )
    (ibot_head): FSDPDINOHead(
      (mlp): Sequential(
        (0): Linear(in_features=4096, out_features=4096, bias=True)
        (1): GELU(approximate='none')
        (2): Linear(in_features=4096, out_features=4096, bias=True)
        (3): GELU(approximate='none')
        (4): Linear(in_features=4096, out_features=384, bias=True)
      )
      (last_layer): Linear(in_features=384, out_features=98304, bias=False)
    )
  )
  (teacher): ModuleDict(
    (backbone): FSDPDinoVisionTransformer(
      (patch_embed): PatchEmbed(
        (proj): Conv2d(3, 4096, kernel_size=(16, 16), stride=(16, 16))
        (norm): Identity()
      )
      (rope_embed): RopePositionEmbedding()
      (blocks): ModuleList(
        (0-39): 40 x FSDPSelfAttentionBlock(
          (norm1): LayerNorm((4096,), eps=1e-05, elementwise_affine=True)
          (attn): SelfAttention(
            (qkv): LinearKMaskedBias(in_features=4096, out_features=12288, bias=False)
            (attn_drop): Dropout(p=0.0, inplace=False)
            (proj): Linear(in_features=4096, out_features=4096, bias=True)
            (proj_drop): Dropout(p=0.0, inplace=False)
          )
          (ls1): LayerScale()
          (norm2): LayerNorm((4096,), eps=1e-05, elementwise_affine=True)
          (mlp): SwiGLUFFN(
            (w1): Linear(in_features=4096, out_features=8192, bias=True)
            (w2): Linear(in_features=4096, out_features=8192, bias=True)
            (w3): Linear(in_features=8192, out_features=4096, bias=True)
          )
          (ls2): LayerScale()
        )
      )
      (norm): LayerNorm((4096,), eps=1e-05, elementwise_affine=True)
      (local_cls_norm): LayerNorm((4096,), eps=1e-05, elementwise_affine=True)
      (head): Identity()
    )
    (dino_head): FSDPDINOHead(
      (mlp): Sequential(
        (0): Linear(in_features=4096, out_features=8192, bias=True)
        (1): GELU(approximate='none')
        (2): Linear(in_features=8192, out_features=8192, bias=True)
        (3): GELU(approximate='none')
        (4): Linear(in_features=8192, out_features=512, bias=True)
      )
      (last_layer): Linear(in_features=512, out_features=262144, bias=False)
    )
    (ibot_head): FSDPDINOHead(
      (mlp): Sequential(
        (0): Linear(in_features=4096, out_features=4096, bias=True)
        (1): GELU(approximate='none')
        (2): Linear(in_features=4096, out_features=4096, bias=True)
        (3): GELU(approximate='none')
        (4): Linear(in_features=4096, out_features=384, bias=True)
      )
      (last_layer): Linear(in_features=384, out_features=98304, bias=False)
    )
  )
  (model_ema): ModuleDict(
    (backbone): FSDPDinoVisionTransformer(
      (patch_embed): PatchEmbed(
        (proj): Conv2d(3, 4096, kernel_size=(16, 16), stride=(16, 16))
        (norm): Identity()
      )
      (rope_embed): RopePositionEmbedding()
      (blocks): ModuleList(
        (0-39): 40 x FSDPSelfAttentionBlock(
          (norm1): LayerNorm((4096,), eps=1e-05, elementwise_affine=True)
          (attn): SelfAttention(
            (qkv): LinearKMaskedBias(in_features=4096, out_features=12288, bias=False)
            (attn_drop): Dropout(p=0.0, inplace=False)
            (proj): Linear(in_features=4096, out_features=4096, bias=True)
            (proj_drop): Dropout(p=0.0, inplace=False)
          )
          (ls1): LayerScale()
          (norm2): LayerNorm((4096,), eps=1e-05, elementwise_affine=True)
          (mlp): SwiGLUFFN(
            (w1): Linear(in_features=4096, out_features=8192, bias=True)
            (w2): Linear(in_features=4096, out_features=8192, bias=True)
            (w3): Linear(in_features=8192, out_features=4096, bias=True)
          )
          (ls2): LayerScale()
        )
      )
      (norm): LayerNorm((4096,), eps=1e-05, elementwise_affine=True)
      (local_cls_norm): LayerNorm((4096,), eps=1e-05, elementwise_affine=True)
      (head): Identity()
    )
    (dino_head): FSDPDINOHead(
      (mlp): Sequential(
        (0): Linear(in_features=4096, out_features=8192, bias=True)
        (1): GELU(approximate='none')
        (2): Linear(in_features=8192, out_features=8192, bias=True)
        (3): GELU(approximate='none')
        (4): Linear(in_features=8192, out_features=512, bias=True)
      )
      (last_layer): Linear(in_features=512, out_features=262144, bias=False)
    )
    (ibot_head): FSDPDINOHead(
      (mlp): Sequential(
        (0): Linear(in_features=4096, out_features=4096, bias=True)
        (1): GELU(approximate='none')
        (2): Linear(in_features=4096, out_features=4096, bias=True)
        (3): GELU(approximate='none')
        (4): Linear(in_features=4096, out_features=384, bias=True)
      )
      (last_layer): Linear(in_features=384, out_features=98304, bias=False)
    )
  )
)
I20260407 13:53:17 2534090 dinov3 ssl_meta_arch_lora.py:131] Getting parameter groups for backbone
I20260407 13:53:17 2534090 dinov3 param_groups.py:168] cls_token: lr_multiplier: 0.4367863958719317, wd_multiplier: 1.0
I20260407 13:53:17 2534090 dinov3 param_groups.py:168] storage_tokens: lr_multiplier: 0.4367863958719317, wd_multiplier: 1.0
…
